model.pth (torch, 799092 bytes, 6 tensors)

fc1.weight f4 [200, 784]
000000 90 0d e9 3b d7 74 c8 bb bb 2e dd 3c db 10 dd bc
       0.0071122125 -0.006117444 0.026999822 -0.026985576
000010 07 fe 12 bd 3d 71 d9 bc 3b ba 00 bb ad 8a f9 3c
       -0.03588679 -0.026543254 -0.0019642252 0.030461634
000020 8f af 87 bc d8 9a f5 3c d2 50 8f 3b 4e e3 05 bd
       -0.016563205 0.029981062 0.004373648 -0.032687478
000030 02 09 7c bc 18 fd 7e 3c 8a 0f 02 bc 6d be f9 bc
       -0.015383007 0.015563272 -0.007938275 -0.03048631
000040 5f 80 b8 bc 38 6c 51 bc 05 39 6a bc 87 a0 13 bd
       -0.02252215 -0.012782149 -0.014295821 -0.036041763
000050 76 67 10 bd 9b 1c 01 3d 8d 15 03 bd 72 dd ed 3c
       -0.035254918 0.03152142 -0.032002974 0.029036257
000060 bd b9 90 3c 82 ad d8 bc 92 aa f8 3c 03 9f a0 bc
       0.017666692 -0.026449922 0.030354772 -0.019607073
000070 48 10 69 bc 31 33 0a bd 8d a2 06 bc 0d ca aa bc
       -0.014225073 -0.033740226 -0.008217466 -0.020848298
000080 83 92 18 bd 22 b9 4b bc d8 0c 8b 3c 80 81 3a bc
       -0.0372491 -0.012434276 0.016973898 -0.011383414
000090 df c4 1b bc 40 db d3 bc bd 67 b5 39 92 78 05 3c
       -0.009507387 -0.025861382 0.000346003 0.008146422
0000a0 73 75 88 3c 13 9b ce bc 1f ea c5 bc b5 fd 02 bd
       0.016657567 -0.02522043 -0.02415949 -0.031980235
0000b0 a7 e6 ae 38 51 f6 c4 bc 85 c4 88 bb d3 01 16 bd
       8.339929e-05 -0.024043234 -0.0041738176 -0.036622833
0000c0 49 9c 01 3c 89 ca 80 bc 73 19 69 bb 55 e3 33 bc
       0.007910796 -0.015721576 -0.0035568147 -0.010979493
0000d0 30 85 c0 bc dc bb 45 bb 42 11 0f bb 5d 7e cf bb
       -0.023501009 -0.0030171787 -0.0021830355 -0.0063322023
0000e0 35 8a a3 bb 3d e3 13 ba 8e c1 c3 bc 97 8f 54 3c
       -0.004990841 -0.0005641466 -0.023896005 0.012973688
0000f0 4f 91 f8 3b e0 a8 df 3b 2d cd 9f ba ab 6a 0c 3c
       0.0075856815 0.0068255514 -0.0012191884 0.0085703535
000100 6c 3f ca 3b 47 c4 e7 bc 09 65 43 3c 3d b3 da bc
       0.0061721113 -0.028291835 0.011925944 -0.026696796
000110 38 87 e2 bb 3b 19 f6 bb f9 b5 3e 3c 13 5f d2 3b
       -0.006913092 -0.007510332 0.011640065 0.006420025
000120 ea 66 e2 3c 87 24 0f bd cd 12 b0 bc 3d 1a 8f 3b
       0.027636964 -0.034946945 -0.02149334 0.0043671415
000130 6a fd 93 bc db 31 56 bc c2 ff f5 bc a7 6b de 3b
       -0.018065173 -0.01307341 -0.030029181 0.0067877355
000140 10 f1 6a 3c 5a e4 df 3c 1e 4e 29 3c ff f1 a2 bc
       0.0143397 0.027330566 0.010333566 -0.019890783
000150 02 e2 a2 bc ba a0 f4 bb 93 d6 bd 3c 00 ee e1 3c
       -0.01988316 -0.007465449 0.023173606 0.027579308
000160 1b 31 9d 3c 67 67 08 3d c5 f6 4f bc 73 a1 ba bc
       0.019188454 0.033301737 -0.012693112 -0.022782063
000170 b5 32 fd 3c ba 37 f0 3c 4b da 95 3c a0 8f f7 3c
       0.030907968 0.029323447 0.018292567 0.030219853
000180 a7 35 ce bc 04 fe 9f bc c0 7c b2 bc 70 df d4 3c
       -0.025172068 -0.019530304 -0.021788001 0.02598545
000190 27 5a a8 bc a7 68 fc 3c 67 85 ac 3c 6f bf 83 3c
       -0.0205508 0.03081162 0.021059705 0.016082494
0001a0 a5 dc 86 3c 4c 7b 09 bc 18 c8 27 3c 9b 7f 9b 3c
       0.016462633 -0.008391213 0.010240577 0.018981745
0001b0 f7 10 b4 3b 72 8b 9e 3c 92 80 f0 bc 6f 09 b7 ba
       0.0054951864 0.019353602 -0.029358182 -0.0013964603
0001c0 a8 7a 54 bc 39 0e 16 bd c7 66 3e 3b 67 cf fa bb
       -0.012968697 -0.036634658 0.002905296 -0.007654119
0001d0 d3 f1 75 bc 3a a5 b9 3c e2 5b 70 bc 13 8a b8 bc
       -0.015011269 0.022661794 -0.014670344 -0.022526776
0001e0 78 5a e1 3c b8 83 ae bc c2 c2 2a 3c 53 33 ec ba
       0.02750896 -0.021303043 0.01042241 -0.0018020667
0001f0 3f 1c 7c ba ba 05 4c 3c 93 3b 1c bc cd 91 13 3d
       -0.0009617246 0.012452537 -0.009535688 0.03602772
000200 23 b5 43 3c cb 9f 71 bb a9 11 c7 3b ae 2c 06 bd
       0.011945042 -0.0036868926 0.0060751033 -0.032757454
000210 f2 5a 05 bd 62 5f 70 bb e3 e2 e0 bc 07 1b fd bc
       -0.032557435 -0.0036677946 -0.027451938 -0.030896677
000220 8b 07 b4 bc 9b 99 03 3c 87 f9 6c 3c a7 42 49 ba
       -0.021976253 0.008032228 0.014463789 -0.00076774735
000230 3d bc 32 bc 5b 48 02 bc e3 d0 d7 3b ea 19 7b 3a
       -0.010909137 -0.007951821 0.0065861805 0.00095787516
000240 0b 19 13 3c 10 fc 11 bd 2b a3 ff bc 46 f6 ac bc
       0.008978139 -0.035640776 -0.031205734 -0.021113526
000250 ca fb 7c 3c 6f 96 9f bb 63 d9 d0 3c fd 3c 11 3d
       0.015440891 -0.004870228 0.025494283 0.035458554
000260 ff 4b 06 bd 5a 71 d5 3c 22 fa a8 bb c4 83 bb bc
       -0.03278732 0.026055027 -0.0051567713 -0.02288998
000270 c0 f2 fe 3b b3 9e b2 bc e2 2f 07 3d 40 39 cf 3c
       0.007780403 -0.02180419 0.03300465 0.025295854
000280 47 9e d4 3c 88 4c 0a 3d ee 93 49 bc e3 97 e7 bc
       0.025954379 0.033764392 -0.012303336 -0.028270667
000290 3d 59 83 3c 9a 2f ca 3c 30 48 9d bc 4a ad 86 3c
       0.016033763 0.024680901 -0.01919946 0.016440053
0002a0 d7 34 b8 bc 3f b6 85 bc 55 5f b1 ba 73 a6 ea bc
       -0.022486134 -0.016322253 -0.001353244 -0.028643822
0002b0 07 c7 04 3d 8b e1 dd bc 61 14 93 3b 54 e6 0e bd
       0.03241637 -0.027085086 0.0044885133 -0.034887627
0002c0 5b 64 ba 3b b0 69 23 3b 4f 32 cc 3b ae 65 a5 bc
       0.005688233 0.002493482 0.006231583 -0.020190086
0002d0 5a 27 fc bb c3 84 d1 3a 35 f9 6f ba 1d 2d 78 bb
       -0.0076951208 0.0015985001 -0.0009154261 -0.0037868686
0002e0 37 95 39 bb 2f eb c9 3c 07 61 19 bc a3 54 62 bc
       -0.0028317699 0.024648277 -0.009361512 -0.013814124
0002f0 23 d9 b6 bc 1a 22 f0 3c ef 38 bf bc eb 5c 02 bd
       -0.022320336 0.029313136 -0.023342578 -0.031826895
000300 c5 b1 a8 3c 79 95 2e bb 57 bd 5e ba 77 ee 1d bc
       0.02059258 -0.0026639386 -0.0008496842 -0.009639374
000310 98 f6 e2 39 33 b6 b4 bc 18 d5 8b 3c 1f 6a de 3c
       0.00043289806 -0.022059536 0.017069384 0.027150212
000320 4b 7e de bc 0f eb b6 bb e6 a7 a6 3b ea 55 7f 3b
       -0.02715983 -0.0055822204 0.005085933 0.003896112
000330 4f 78 8a bc 63 1b ef bc f3 ec 25 bc c8 97 4d 3c
       -0.01690307 -0.029187864 -0.010127294 0.0125483945
000340 62 8b b0 3c da ca 6b 3c df 48 b3 3b a8 5e 16 3d
       0.021550838 0.014391625 0.0054713334 0.036711365
000350 2b ca 93 3b 70 0a f7 bc ab 2f 8f bc 3a ec 74 bb
       0.0045101843 -0.030156344 -0.017478785 -0.0037372247
000360 a3 fa 2a 3c 84 ee c2 3c 06 c2 91 bb f2 da 50 bc
       0.010435733 0.023795374 -0.004448178 -0.012747513
000370 1f b2 f9 3c 88 6c c0 bc e0 9d 07 bd c5 ed 3c 3b
       0.030480443 -0.023489252 -0.033109546 0.0028828245
000380 8d d1 d8 3c 08 fd 7b 3c 35 0e 41 3c 2a 77 82 3c
       0.02646711 0.015380152 0.011783172 0.015925962
000390 a2 ee 30 39 45 16 a2 bc 7a 30 4a bc 5f a0 0b 3c
       0.00016873566 -0.01978601 -0.012340659 0.008522122
0003a0 b8 0c db 3c d9 d9 2f bc de 49 1a 3d 02 45 0c 3d
       0.026739463 -0.010733091 0.0376681 0.0342455
0003b0 85 d3 20 3d 53 01 e2 3c d8 02 1b 3b 5f b5 0c 3d
       0.03926422 0.027588522 0.0023652818 0.034352656
0003c0 2f 2d d9 3c 4b 9c a0 3b 5f 9d 97 3c 38 b6 a6 3c
       0.026510803 0.004901444 0.018507658 0.02035056
0003d0 a8 64 e9 3b 2d 2b f2 bb 4d c0 f3 3c 2f bf ed b9
       0.007122595 -0.007390401 0.029754782 -0.00045346605
0003e0 23 c5 fc bc 42 45 38 3c eb f0 0e bd 92 f8 5e 3c
       -0.03085572 0.011246981 -0.034897726 0.0136090685
0003f0 3b 05 6a 3c c1 ff 00 3d 7a 32 da 3a 18 ae 80 bc
       0.014283474 0.031493906 0.0016647123 -0.015708014

fc1.bias f4 [200]
000000 6b fa c3 bc 79 59 15 bc 46 7d 81 3c 35 0d ee 3c
       -0.02392312 -0.00911557 0.015806805 0.029059032
000010 63 03 e8 bc 4b b6 d7 bc af fd 08 3d 17 b9 6f bc
       -0.028321927 -0.026332041 0.033445057 -0.014631531
000020 ba 1d ef bc dc f9 94 bc 17 d5 90 3c e8 54 57 bc
       -0.02918898 -0.018185548 0.017679734 -0.013142802
000030 75 df 2c 3c 90 2f 18 3d e3 14 0f bd b0 5d 02 3d
       0.010551323 0.037154734 -0.03493203 0.03182763
000040 f7 12 c6 3c e4 1a 3d bb aa 3e 8b 3c a7 ec d0 3a
       0.024178965 -0.002885514 0.016997654 0.0015939669
000050 20 00 f1 bc de 02 8c bc b8 1d 89 3a 77 05 09 3d
       -0.029419005 -0.017091211 0.0010461127 0.033452477
000060 87 e4 ad 3c e0 f0 ea bb 1a 98 fe bc da 78 6e 3c
       0.021227134 -0.007169828 -0.031078387 0.01455518
000070 90 a0 57 bc f8 17 be 3c a3 42 f9 bc 9b 22 a4 bc
       -0.01316084 0.023204789 -0.030427283 -0.020036032
000080 6a f2 4d 3c 3b 80 cb 3b 7a 8c 00 bd 1d 84 d1 3c
       0.012570003 0.0062103546 -0.03138397 0.025575692
000090 76 4e 9f bc f3 13 ba 3c ef ad 3d bb 80 ea db bc
       -0.019446593 0.02271459 -0.0028942784 -0.026845217
0000a0 2d 80 8e 3c 4f 82 ab 3c 8b 1b 52 bc 2a 36 75 3c
       0.017395103 0.02093616 -0.01282395 0.014966527
0000b0 a5 c9 9e 3c ac 0e 0f bd 4c c0 3d bc bd 79 5d 3c
       0.019383261 -0.0349261 -0.011581492 0.013517794
0000c0 5d 9a 7a 3c 68 78 9a 3c e5 44 3a 3c 4b fa df bb
       0.015295592 0.018856242 0.011368965 -0.006835257
0000d0 b8 bd dc 3c 87 ad 28 3a 84 51 03 3d 48 f4 cd 3c
       0.026945934 0.0006434549 0.03206016 0.025140896
0000e0 27 f1 08 bd 73 8a 94 bc 61 68 98 bc 70 83 53 3c
       -0.033433106 -0.018132424 -0.01860446 0.012909755
0000f0 af 63 fe 3c b2 e7 23 3c 03 e9 83 3c fd 8b 75 3c
       0.031053392 0.010003971 0.01610232 0.014986989
000100 72 0c 91 3c c0 ca fe bc 87 c7 fb 3c d0 42 0f bd
       0.01770613 -0.031102538 0.03073479 -0.034975827
000110 96 71 27 3d d5 10 a7 bc 03 f9 1a bc 2a 9e dd 3b
       0.04087981 -0.020393768 -0.009458783 0.0067632394
000120 32 2f fb 3c 07 27 5b 3c 07 ce aa 3c 27 6f 08 bc
       0.030662153 0.013376004 0.020850195 -0.008327282
000130 f3 d2 f0 3c fa ac 69 b9 e7 b0 bf b9 ae 68 be 3c
       0.029397463 -0.0002228505 -0.0003656216 0.023243275
000140 2b db ef bc 6b ae 01 3d bd 5e 50 bc 3c 1b cc bb
       -0.029279312 0.03166048 -0.0127179 -0.0062288325
000150 05 57 34 3c c7 77 18 3d 67 a0 d6 bb 63 7f 65 bc
       0.011007075 0.037223604 -0.006549883 -0.014007422
000160 c3 1c ff 3c 9e 4c 2f 3c 60 f7 5f 3c e7 f8 07 bc
       0.031141644 0.010699419 0.013669819 -0.008299089
000170 d0 31 b6 bc 88 8f 57 bc 75 26 3d bc c3 17 6d 3c
       -0.02224055 -0.013156779 -0.011544813 0.014470997
000180 2b dc a7 bc a0 f1 0f 3d d1 52 b8 3c 7f 53 0c 3d
       -0.020490726 0.03514254 0.022500427 0.034259316
000190 1b 14 f1 3c 46 48 2d 3a 38 6a 37 bb 24 95 c0 bb
       0.029428532 0.0006610196 -0.0027986895 -0.005877154
0001a0 4d 61 7e 3b 7e 39 af bc e0 5a 61 3b 42 54 03 3d
       0.003881532 -0.02138972 0.003438644 0.032062776
0001b0 47 cc f9 bb cd c2 64 3a 0f 11 b8 bc 33 f8 eb bc
       -0.0076232287 0.00087265373 -0.022469072 -0.028804874
0001c0 a8 b1 1d bc 0d fc fa 3c 78 3a 18 bc f1 03 03 bb
       -0.009624876 0.030637765 -0.009291284 -0.0019991363
0001d0 bb 98 7c 3c 23 61 bb 3c 6b 9f e5 3a cb 33 c7 bc
       0.015417273 0.022873467 0.0017518824 -0.024316689
0001e0 d7 51 89 bc 73 b0 81 bc db 8c 0f 39 df 5b 98 39
       -0.016762657 -0.015831208 0.00013690015 0.00029060149
0001f0 7a d0 6f 3c 35 ec 15 3d 03 c3 34 3d 0a 27 4d bb
       0.014637107 0.036602218 0.04413129 -0.0031303787
000200 b3 54 8a bc 10 ab 17 3d 72 83 63 3c 93 79 ff 39
       -0.01688609 0.037028372 0.0138863195 0.0004872797
000210 47 2c ea b9 e5 2f 29 bb 0c 31 b2 3a ff 44 e6 3c
       -0.00044664947 -0.00258159 0.0013594939 0.028109072
000220 6d b1 4f bc e0 b9 cc 3c ab ab df 3c 58 a7 38 bc
       -0.012676579 0.024990976 0.027303537 -0.011270367
000230 21 0b 1a 3c 27 a8 87 3b c7 91 1a 3d 37 00 55 bc
       0.009402067 0.0041399184 0.03773668 -0.0130005395
000240 13 98 0e 3d 0b df 89 3c 55 82 04 bd fd 9f 01 bc
       0.034812998 0.016829988 -0.032350857 -0.007911679
000250 9b 6e cf bc db cc 46 3c 83 ec 93 bc b3 40 f2 3c
       -0.025321295 0.012133802 -0.018057114 0.029571867
000260 08 88 cd bc b3 54 ee bc 17 76 14 3c 23 19 e8 3c
       -0.025089279 -0.029093122 0.009061358 0.028332299
000270 4d 54 03 3d de 7d ad 3b f7 ea 8f 3c 7b 28 63 bc
       0.032062817 0.0052945456 0.017568095 -0.013864632
000280 38 9f 4c 3c 63 89 7f bc 35 09 00 3c 15 9c 94 bc
       0.012489133 -0.01559672 0.007814695 -0.018140832
000290 82 3e 98 bc f3 cf 26 3c 3d 47 da bc eb b5 25 3c
       -0.018584494 0.010181415 -0.026645297 0.010114173
0002a0 f7 25 b8 3c 95 c9 07 3d ee 1b c0 3a da 54 50 3c
       0.02247904 0.033151228 0.0014656761 0.012715543
0002b0 ab 3b 30 bc 0f af 0b 3c e5 8e fa 3a 73 48 f7 3c
       -0.010756413 0.008525624 0.0019116072 0.030185914
0002c0 67 bc 15 3d 0a 03 24 3c f5 c2 b3 3c 2a fe ce 3c
       0.036556628 0.01001049 0.021943549 0.02526768
0002d0 34 98 9f bc e3 d8 a9 3c dd ba 8e bc 62 3f 9e 3c
       -0.019481756 0.020733302 -0.017423088 0.019317333
0002e0 77 a7 fc 3c 17 1c 9a 3c 96 d5 93 bc ca 26 ec 3b
       0.030841572 0.018812222 -0.018046182 0.0072067725
0002f0 65 5e a5 bb 4d f1 46 3c bd 4f 0c 3d f5 8a 9c 3c
       -0.005046653 0.0121424915 0.03425573 0.019109229
000300 1a f6 04 bd 27 47 ef bc 50 3c eb 3c 67 f6 80 3c
       -0.032461263 -0.029208733 0.028715283 0.015742494
000310 ad 9c f4 bc 57 58 b1 3c c8 d5 90 ba a3 b0 65 3c
       -0.029859865 0.021648569 -0.001105004 0.014019164

fc2.weight f4 [200, 200]
000000 58 8e d7 3c e3 c4 81 bc 07 2f d5 3c 42 cc 21 bd
       0.026312992 -0.015840953 0.026023401 -0.039501436
000010 c8 70 5a 3d cb ee b1 3c 42 8e 3f bd 1d b9 8e bd
       0.053330213 0.02172031 -0.046766527 -0.06968901
000020 33 e9 86 3d 45 e2 8b bd ea 34 db 3b 8a 34 69 3d
       0.06587448 -0.06830267 0.0066896575 0.05693487
000030 a8 8f 3c bd a7 81 ae bc 88 27 87 3d e3 6b 64 bd
       -0.04603544 -0.021302057 0.06599337 -0.05576695
000040 e7 53 62 bd 01 16 87 3d 8d aa 0a bd 3d 3f 6f 3d
       -0.055255797 0.06595994 -0.033854056 0.058409918
000050 f7 1d f8 3c ad 3e 22 3d f5 21 13 3d 25 7a cb 3a
       0.030287726 0.039610554 0.035921056 0.0015524073
000060 6d b9 68 3d b5 0d 8b 3d 76 b1 9e bb 57 b6 0c 3d
       0.05681746 0.06789724 -0.0048429323 0.03435358
000070 d0 ec 59 bd 40 ae f2 bc 0a da 25 bd a3 34 28 bd
       -0.053204358 -0.029624104 -0.04049114 -0.041065823
000080 11 79 4c bc 43 37 5d 3d d7 a8 fb 3c 28 16 53 3d
       -0.012480036 0.05400778 0.030720158 0.0515348
000090 5e d7 91 37 48 d7 47 3d e3 d7 4b 3d 50 5b 20 3d
       1.7385635e-05 0.048789293 0.049766432 0.039149582
0000a0 ff 77 04 3c 62 a4 3e bd ba 5c f6 b9 ca e9 ff 3b
       0.00808525 -0.046543486 -0.00046989863 0.0078098522
0000b0 ef c8 56 bd 51 ac 8d 3d 57 ad 09 bb 7b 16 0c bd
       -0.05243772 0.06917632 -0.002100786 -0.034201127
0000c0 c5 dc fa bc 11 50 85 bd 27 90 a9 bc 3b cd bf bc
       -0.03062285 -0.06509412 -0.02069862 -0.023413291
0000d0 30 46 3a 3d 63 6c 4d bd dd d0 3c bd 75 c0 02 3c
       0.045477092 -0.050152194 -0.046097625 0.007980456
0000e0 c0 db fe 3b 05 33 86 3d 2d 19 2c 3d db a0 ee bc
       0.007777661 0.065527 0.042016197 -0.029129436
0000f0 4a 13 5f 3d 5b eb 28 3d 22 8d 46 3c f7 4e 74 bd
       0.054461755 0.041240077 0.01211861 -0.05964562
000100 7d e0 5b 3b b3 38 4e 3d 70 8e 0e 3d 53 b9 39 bd
       0.0033550553 0.05034704 0.034803808 -0.045342755
000110 3b 4a 80 bd 3f b1 24 bd d9 d7 2a bd d5 17 46 3b
       -0.06264158 -0.040208098 -0.041709755 0.0030226607
000120 cb c5 39 bc 31 6f 2e bb ef 92 68 3d 14 34 28 3d
       -0.011338661 -0.0026616568 0.05678075 0.04106529
000130 3f a2 8f 3c 3d 70 4d bd ab 81 57 bc e7 c6 1f bd
       0.01753342 -0.050155867 -0.013153474 -0.039008047
000140 7b 5c 29 b9 70 c3 d3 3c 97 30 5c bd 9d 1b 03 34
       -0.00016151548 0.025850028 -0.053757276 1.2210371e-07
000150 2d 0a 4d 3d a0 41 3e bd 29 57 0d bd f8 9a 68 3b
       0.050058533 -0.046449304 -0.03450695 0.003549276
000160 3d 0e bf 3c d7 e0 35 3d 4d 01 70 3d 6d 3e 75 bd
       0.023322219 0.044403877 0.05859499 -0.059873987
000170 4f af bc 3c a6 ac 2e bd 2a c8 43 3d 78 a4 f8 bc
       0.023032812 -0.04264512 0.047798313 -0.030351862
000180 95 c1 67 3c a3 f7 59 3d 55 6c 80 3d ea 12 61 bd
       0.014145275 0.05321468 0.06270663 -0.05494968
000190 25 b8 19 bc 17 62 70 3c 60 73 5c 3c 66 e6 86 3c
       -0.009382282 0.014671824 0.013455242 0.016467284
0001a0 fb da 23 3d 48 e4 35 3d 42 69 40 3d 9a 66 37 bb
       0.040003758 0.04440716 0.04697538 -0.002798474
0001b0 00 2d 6b bd 77 f3 7c bd af 9d ca bc 8b e0 86 bd
       -0.057415962 -0.061755624 -0.024733393 -0.06585797
0001c0 8f e4 8d bd 75 72 95 3c 50 35 7f 3d c7 f3 26 bd
       -0.0692836 0.018243054 0.062306702 -0.040759828
0001d0 af 21 88 bd 1d b2 d6 bc 79 7d 8e bd 78 18 40 bb
       -0.0664705 -0.026207978 -0.06957526 -0.002931146
0001e0 9e 91 be bc f1 ee 82 bd 1a b1 89 3d 62 d6 85 bc
       -0.023262795 -0.06393231 0.067232326 -0.016337577
0001f0 cf 3d 82 3d 87 76 0b 3d 05 ff c8 bc 65 f0 8e bd
       0.06359445 0.034048583 -0.024535665 -0.06979445
000200 a7 37 26 3d 86 cd 84 bd 45 4b 34 3d 8d 05 4f 3c
       0.040580418 -0.06484513 0.044017095 0.012635601
000210 5a 00 8f 3d e5 5a 1e 3d 4b ee 87 3d e3 88 1d bd
       0.06982489 0.038660903 0.06637248 -0.038460623
000220 ba 65 2e bd da c5 15 3d ee 38 4a 3c 8c c2 1b bc
       -0.042577483 0.03656564 0.012342675 -0.009506833
000230 13 89 36 3d b8 7e 83 3d 26 46 24 3d af 04 04 bd
       0.044564318 0.06420654 0.04010596 -0.03223103
000240 93 bf 77 bd 0c b1 37 bc 9f 8e 6b bd fa a2 64 3d
       -0.060485434 -0.011211645 -0.05750906 0.05581949
000250 78 a9 50 bd 87 f1 49 bd fd 80 22 3d 24 80 cb 3b
       -0.050942868 -0.049302604 0.039673794 0.006210344
000260 bb 9b 03 3c 83 1c 07 3d 9d 87 7a bd a7 e0 55 bd
       0.0080327345 0.032986175 -0.061164487 -0.0522162
000270 e7 00 1c bd 50 5c 23 bd 68 d2 10 bd 2d 08 e5 bc
       -0.038086798 -0.039882958 -0.03535691 -0.027958
000280 28 70 8b bd 33 23 9c bc 3d 61 57 bc 27 3d dd 3c
       -0.068085015 -0.019059753 -0.013145742 0.027006699
000290 66 21 94 bc 03 c2 8c 3d 0b f9 17 bd 43 e9 2c 3d
       -0.018082332 0.06872942 -0.03710274 0.042214643
0002a0 95 98 04 ba 7a c6 75 bc 88 03 2e 3d 17 b0 7c bd
       -0.0005058137 -0.015000934 0.042483836 -0.06169137
0002b0 0a 35 72 bd b1 f1 09 bd 4d 18 8f 3c 6f 64 11 3d
       -0.059132613 -0.03367776 0.017467642 0.03549617
0002c0 e0 4f fb 3b ff 7b 2b bd d2 55 0d bc 2a 25 44 3c
       0.007669434 -0.0418663 -0.008626418 0.011971751
0002d0 b2 d5 7d 3d 2a e6 25 bd ff b7 f4 bc f5 2a 1c bc
       0.061971374 -0.040502705 -0.029872892 -0.009531726
0002e0 3a ce 99 b9 c7 be e1 bc 18 0d 85 bd bb 96 05 bd
       -0.00029336085 -0.02755679 -0.06496638 -0.03261445
0002f0 f4 50 8d bd e0 f1 7b bd 05 98 33 bd 62 a4 e2 3c
       -0.06900206 -0.061509967 -0.04384615 0.027666274
000300 d1 56 29 bd c2 dc 8a bb 1b 38 77 3d 48 61 8f 3d
       -0.04134256 -0.004237742 0.06035624 0.07000977
000310 5a 75 44 3c 8d c8 65 3d 25 7e 33 3d 1b de 26 3d
       0.011990869 0.056099463 0.043821473 0.04073916
000320 0b a1 c4 3b c9 e7 37 bd 80 4a 76 bc cf 60 3c 3d
       0.006000643 -0.044898782 -0.015032411 0.04599076
000330 83 5b 62 3c 75 6d 18 3d 7a e3 7d bd 18 0c 8d 3c
       0.013815763 0.03721376 -0.061984517 0.01721768
000340 73 fe 74 bc cd 7c fe 3c d2 4c 4d 3d 2d 9e 32 3a
       -0.014953244 0.031065369 0.05012209 0.0006813731
000350 67 46 07 bd c7 3b 3c bc a7 67 6a 3c ab 13 43 bd
       -0.033026125 -0.011488861 0.014306939 -0.04762618
000360 b8 0a 8d 3c cd e7 c0 bc 28 77 22 bd 35 13 63 3d
       0.017217025 -0.023548031 -0.039664418 0.05543824
000370 70 c3 00 3d 97 b8 a6 bc 40 0c 6e 3d fd d5 83 bd
       0.031436384 -0.020351691 0.05811715 -0.064372994
000380 76 be c8 bc d5 4b 8b bd 64 62 a0 bc 4a e3 67 3d
       -0.024504881 -0.06801573 -0.019578166 0.056613244
000390 dd e2 0c bd 23 57 88 bd f2 1a 0f bd 77 c0 8b 3d
       -0.03439604 -0.06657245 -0.034937806 0.06823819
0003a0 1d e0 ed b9 ab 8a 48 3d 8d 59 82 bd 38 dd 59 3c
       -0.0004537114 0.04896037 -0.06364737 0.013297372
0003b0 ed 5f 8c bd eb 2c ba 3a 77 07 4f 3d cf cb c6 3b
       -0.06854234 0.001420406 0.05054423 0.0060667763
0003c0 9b 96 4b bd 01 57 36 bd 67 cd 44 3d 7b 0f 80 bd
       -0.049704175 -0.044516567 0.04804745 -0.06252953
0003d0 97 21 3f bd 77 da 57 bc 73 26 7a 3d 53 c6 fb bc
       -0.046662893 -0.013174645 0.061071824 -0.030734217
0003e0 7a e2 2e bd 52 dc 5e 3d c8 16 12 3c 12 cd 33 3c
       -0.042696454 0.054409333 0.008916564 0.010974186
0003f0 2d db 50 3b 07 a0 39 bd 4d c3 57 bc ab 04 56 bd
       0.003186892 -0.04531863 -0.013169122 -0.052250545

fc2.bias f4 [200]
000000 6a 5b 4a bd c2 52 aa bc 77 63 6f bd 58 aa 8a bc
       -0.049403585 -0.020791415 -0.058444466 -0.01692693
000010 a0 0f d6 bc ef 0e c0 ba 72 7c 8b bc b2 3c 61 bd
       -0.026130497 -0.0014652888 -0.017027114 -0.054989524
000020 10 b2 7e 3c b6 44 86 bd a3 90 38 3d c7 cc 44 bc
       0.015545383 -0.06556074 0.04505981 -0.012011713
000030 1a 0e ef 3c 75 1e 8c 3d 07 8f 50 3d 00 1a bb bc
       0.029181529 0.06841747 0.05091765 -0.022839546
000040 90 43 6c bd c7 fc 3e 3d 0f 46 11 3d 99 e0 00 3d
       -0.05768162 0.046627786 0.035467204 0.031464193
000050 57 1f fa 3c d7 5c 49 bd 52 88 74 bc db cf 1a 3c
       0.030532522 -0.049160805 -0.014925079 0.009448971
000060 b0 dc 87 3d 72 e5 3c 3d 3c 5e ca 3c b7 f6 12 3d
       0.0663389 0.046117254 0.024703138 0.035879817
000070 47 dc 76 bd 6b e9 6b bc bb 31 29 bd 40 9c 6c 3d
       -0.060268667 -0.014398913 -0.041307192 0.0577662
000080 d7 6a 05 bd 62 36 0c bd 4a e3 94 3c 7a 8f d9 3c
       -0.032572594 -0.03423155 0.018174786 0.026557673
000090 10 64 21 bd b3 42 05 bd 4f 47 be bc db b7 16 bc
       -0.039402068 -0.032534312 -0.023227362 -0.009199108
0000a0 20 03 77 bc 3a 71 05 bd 2b 59 ac b8 9f 2e 30 bd
       -0.015076429 -0.032578684 -8.218208e-05 -0.04301321
0000b0 47 1b 85 3d ba ba 71 3d 9f 32 cb 3c 70 2b 70 bd
       0.06499343 0.059015967 0.024804411 -0.058635175
0000c0 2e 3c 80 bd e8 9a 48 3c 63 51 05 bd 83 c9 29 bd
       -0.06261478 0.012243964 -0.03254832 -0.041451942
0000d0 67 cf 84 bd 33 b2 90 3d d3 31 62 3d 78 4a 91 3d
       -0.06484871 0.07065239 0.055223297 0.07094282
0000e0 2b c1 c8 3b 28 71 d2 3c 70 cd 3c bd 90 21 21 3d
       0.006126543 0.025688723 -0.046094358 0.03933865
0000f0 25 80 b4 3c fa c8 50 bd d5 06 9f 3d 0f 1f 3c 3d
       0.02203376 -0.050972916 0.07764975 0.045928057
000100 ba f9 db 3c 35 4d b3 bc 50 a8 6f bd 90 d3 1d 3d
       0.026852477 -0.021887401 -0.058510125 0.03853184
000110 28 e4 cb bc 17 e1 2d bd 87 51 98 3b 38 80 8c 3c
       -0.024889067 -0.04245099 0.0046483907 0.017150983
000120 79 c2 82 3d 1e 75 a7 bc 3d 2d 6e 3d d2 da 82 bd
       0.06384749 -0.020441588 0.05814861 -0.06389393
000130 f3 01 6e bc 23 a8 e9 3c 1b f0 80 bc 68 0c 62 3b
       -0.014526832 0.028522557 -0.015739491 0.0034492258
000140 6b 12 09 3d 85 56 44 bd fb 1d 4d 3d 43 e7 77 3d
       0.03346483 -0.047934074 0.05007742 0.060523283
000150 7d 61 53 bd 67 56 86 3c af 9a 37 bd c6 6c 17 3d
       -0.051606644 0.016398622 -0.044825252 0.03696897
000160 1f 4a 5f bd f7 e0 a4 ba 0f 3b cb 3c e9 79 ac ba
       -0.054514047 -0.0012579252 0.024808435 -0.0013158891
000170 ab 8d 34 bd 4d cb d5 bc 2a c9 8d 3d c5 9c f3 3c
       -0.044080418 -0.026097918 0.069231346 0.02973784
000180 0d 7b 1e bd 13 e6 27 3d 20 4e 86 bc 6d 37 9d 3d
       -0.03869157 0.0409909 -0.016394675 0.07676587
000190 83 68 e0 3c 7f 01 ef 3c 4b 26 0f 3d a2 65 4c 3d
       0.027393585 0.029175518 0.03494863 0.049901612
0001a0 c4 11 34 3d e6 93 30 3d 9d 6f 0a bd 1b a1 80 bd
       0.043962255 0.043109797 -0.03379785 -0.062807284
0001b0 43 83 8e 3c 5a 1d b1 3b 99 17 2b bd fb 91 55 3d
       0.017396575 0.0054051103 -0.04177055 0.05214117
0001c0 9f f9 21 bd 2d e4 29 bc dc 26 09 bd e0 a0 61 bd
       -0.039544698 -0.010369343 -0.033484325 -0.055085063
0001d0 22 02 33 bc 87 8f 68 3d 68 22 03 3d 5f b5 a6 3c
       -0.0109258015 0.056777503 0.032015234 0.020350156
0001e0 31 ce 1d bd 71 7f 49 bd cf f0 3d 3d b5 7c f1 bc
       -0.038526718 -0.049193803 0.04637223 -0.02947841
0001f0 97 7e 6d 3d 0d 12 ce bc 38 16 15 bd 50 71 b7 3c
       0.057982054 -0.025155092 -0.036398143 0.022392899
000200 3b 08 1c 3c 53 2b 8e bc ab b6 1e bc 0d cb f4 bc
       0.009523447 -0.017354643 -0.009687106 -0.029881978
000210 92 9a a3 3c a8 92 fe bc 1a ad 7f bd 4f 2c c6 3c
       0.019971166 -0.03107579 -0.062420942 0.02419105
000220 08 f6 b6 bc 92 83 83 3d a5 64 8e 3d 50 fe 54 3d
       -0.022334114 0.064215794 0.0695279 0.052000344
000230 ea aa 7e bd 70 9b 6a 3d 1c 0b 40 bd b0 63 71 3d
       -0.062174715 0.057277143 -0.046885595 0.05893296
000240 23 55 e3 bb 60 f0 4a bd 50 cd 63 3d 4d f0 f4 3b
       -0.0069376393 -0.049545646 0.055615723 0.007474935
000250 07 78 6e bd b7 e3 c4 bc 07 6c 76 bd 4f 50 62 3d
       -0.058219936 -0.024034364 -0.060161617 0.05525237
000260 98 80 c3 3c fb 83 af 3b ca 07 d3 bc 17 e4 1d 3d
       0.02386503 0.0053563095 -0.02576055 0.0385476
000270 87 b1 4e bd eb 09 c3 bc 62 49 0e bd 27 c3 52 bc
       -0.050462272 -0.02380844 -0.034737952 -0.012863911
000280 a3 6e 07 bd 4d 77 52 3d f1 78 c1 3b 27 4e 85 3c
       -0.033064496 0.051383305 0.00590431 0.016272618
000290 bf b3 6c bc 02 2e cb 3c e2 0e 1e 3d 3b 7a 1a bd
       -0.014447152 0.024802212 0.038588412 -0.037714224
0002a0 a0 c6 db bc c4 04 93 bc d0 2f 06 3d 6a 0e 85 3d
       -0.02682811 -0.017946608 0.03276044 0.0649689
0002b0 c7 34 d4 bc 03 15 5e 3d 89 26 13 bd cf 70 a0 3c
       -0.025904072 0.054219257 -0.035925422 0.019585041
0002c0 b3 87 2f bd a2 da f7 3c 77 04 fb 3a 6b 3f 3c 3d
       -0.042854022 0.03025562 0.0019151111 0.045958918
0002d0 b0 d1 5d 3d 9b 7a 31 3d 60 f5 fc 3c 74 9b 10 3d
       0.05415505 0.043329816 0.030878723 0.0353045
0002e0 5c c7 1f 3d e0 be 65 bd 2f 5b 20 bd 6a 5d 73 3c
       0.039008483 -0.056090236 -0.03914946 0.014853815
0002f0 cb 6a 03 3d a3 5c 35 bd 1a b4 26 3c 6b e4 09 bc
       0.032084268 -0.0442778 0.0101747755 -0.0084162755
000300 23 ac 42 3d a3 38 76 bd dd 3a 7f bd 2a 72 ef 3a
       0.047527444 -0.060112607 -0.062311996 0.0018268276
000310 82 95 a0 3c 67 93 4b bd 3f 35 ea bc a5 a1 51 bd
       0.01960254 -0.04970112 -0.028589843 -0.051179547

fc3.weight f4 [10, 200]
000000 a8 8d 83 bd af 2d 93 3b 64 06 86 bd 7f 40 02 bd
       -0.06423503 0.00449153 -0.06544188 -0.03179979
000010 5d 07 78 bc 2d 49 c5 bc 28 83 97 3d c6 c7 90 3a
       -0.015138474 -0.024082744 0.07398063 0.0011045865
000020 9f 40 33 bd f7 1c 0d bd 43 0e 07 bc bd d8 98 3d
       -0.0437628 -0.03445145 -0.008243146 0.074632145
000030 8d 48 53 3d 38 04 7e bd 75 54 ba bc 30 fa 21 bd
       0.05158286 -0.062015742 -0.02274535 -0.039545238
000040 dd 3d 64 3d ff 49 8d bd d3 a3 28 bd 6f eb 9d bc
       0.05572306 -0.06898879 -0.04117186 -0.019277303
000050 77 b8 fd bc 87 ca 3c 3d ab fd dd 3c 57 18 83 3d
       -0.030971749 0.046091583 0.027098497 0.06401127
000060 25 af e6 3b f3 8c 7e bd 37 14 2f 3d 6a bd 94 3d
       0.007039922 -0.06214614 0.042743888 0.0726269
000070 27 9e 9d bc c9 ca b3 b9 f7 f7 5b bd a5 17 31 bd
       -0.019240452 -0.00034292627 -0.053703275 -0.04323544
000080 10 49 52 3d 20 58 f8 3c a5 46 16 bd df c6 ac 3a
       0.05133921 0.030315459 -0.036688466 0.0013181827
000090 8c 57 39 3d 4b a3 91 3c d1 41 49 bd d7 88 bc 3c
       0.045249507 0.01777806 -0.049135033 0.02301447
0000a0 01 bf 81 bd 61 8f 3c 3d 67 5e 57 bd 97 18 3e bd
       -0.06335259 0.046035174 -0.052580263 -0.04641017
0000b0 6b 7e 2f bd 77 8c 3d 3d 10 c3 5c 3d 35 33 e0 3b
       -0.04284517 0.046276536 0.053896964 0.006842042
0000c0 f2 42 b5 3c cd 92 d7 bc a3 c6 4e bc df 12 82 bd
       0.022126649 -0.026315117 -0.012620601 -0.063512556
0000d0 d5 1b 1c 3c 90 43 e0 bc 72 f5 9b 3c c9 5a 3e 3d
       0.00952812 -0.027375966 0.019037936 0.0464733
0000e0 cf d4 3e 3d 60 83 22 3d e7 c9 57 bd 3d 20 5b bc
       0.04658967 0.03967607 -0.052682783 -0.013374385
0000f0 1c bf c3 bc 98 08 00 bd 15 a0 77 3d 9b 02 90 3d
       -0.023894839 -0.031258196 0.0604554 0.07031747
000100 19 02 4c 3d 00 f9 d5 bc e3 95 61 3d 63 59 1c bc
       0.049806688 -0.026119709 0.055074584 -0.009542796
000110 7e 26 24 bc 2d 9d 4d 3d e3 63 53 bc 02 38 94 bd
       -0.010018943 0.050198723 -0.012902233 -0.07237245
000120 a3 63 b0 bd 5d 02 da b9 18 fb 01 3d b7 bd 24 bd
       -0.08612754 -0.0004158196 0.031733602 -0.04021999
000130 c5 f9 33 bd c5 9c 04 bd a3 63 37 3c 13 68 d9 3b
       -0.04393937 -0.03237607 0.011193189 0.006634721
000140 d2 b5 67 bd 31 8f 89 bc 47 e2 66 ba a3 75 8a bc
       -0.05656988 -0.016791912 -0.00088075217 -0.016901797
000150 ed 89 57 3d 8a 46 8e bd b0 00 5f bb 58 63 76 bc
       0.05262177 -0.06947048 -0.003402751 -0.015038334
000160 ac f8 1b bd c5 6e b5 bc d7 fa 81 3d 28 d2 ca 3c
       -0.03807895 -0.022147546 0.06346672 0.024758413
000170 1b 7a 82 bb 1a e7 8a 3d 9a 76 9b 3c 37 4a 72 3d
       -0.0039818413 0.067823604 0.018977452 0.059152808
000180 4d 9c 9d bc fe 1b aa 3d 1f a8 91 bd c2 0e e7 bc
       -0.01923957 0.0830612 -0.07112145 -0.02820528
000190 eb 40 17 3c 73 f5 81 3d c3 a8 fa 3c 60 05 80 bd
       0.009231786 0.06345644 0.03059805 -0.06251025
0001a0 51 a4 c5 3b 07 fa 83 3b 2a 1b 63 3d 1f f5 c6 3d
       0.006031551 0.0040276083 0.055445828 0.09714722
0001b0 f5 ce e1 3c 07 65 26 3d 57 26 a6 3d 44 f1 82 3d
       0.027564505 0.04062369 0.081127815 0.06393674
0001c0 e2 8c 01 bb eb c4 89 bd 0d c0 8d bd 73 63 54 bc
       -0.001976781 -0.06727012 -0.069213964 -0.012963164
0001d0 e3 cf df 3c 9d ac 76 3d da 17 3c 3d c2 62 06 3d
       0.027320808 0.06022321 0.045921184 0.032809027
0001e0 c5 f6 de bb 58 4c 0c 3d d7 d9 a2 3c 7e 3b 87 bd
       -0.0068043196 0.034252495 0.019879265 -0.06603144
0001f0 7b d5 2b bd 27 6e bf 3c 6c 5d a2 3c 5a 13 69 3d
       -0.041951638 0.023367954 0.019819938 0.05690322
000200 b4 f9 2c bd 57 8c f2 3c 0d b2 58 3d 98 38 97 3b
       -0.042230323 0.029607935 0.052904177 0.004614901
000210 1d 78 7f 3c e6 3c 2c bd 15 c3 03 3d 62 ee 98 bd
       0.015592602 -0.042050265 0.032168467 -0.07467343
000220 bf ba bc bc 10 d3 bc 3c 33 ad 4a bd 20 fe 58 bd
       -0.023038266 0.023049861 -0.049481582 -0.052976727
000230 22 30 4e bd 0a ef de bc ba 5e 80 bd 6f 69 0f bd
       -0.05033887 -0.027213592 -0.06268068 -0.03501266
000240 3a 27 0a 3d d0 3a 32 bd 43 6e 49 3d 2a 01 81 bd
       0.033728816 -0.04351312 0.04917742 -0.0629905
000250 80 8f 21 bd 75 e3 5a 3d 79 ca 13 3d 88 83 26 bd
       -0.039443493 0.053439576 0.036081765 -0.04065278
000260 94 3d 28 3d 65 04 9d bd ff 52 0f bd c5 1f 6c bc
       0.04107435 -0.07666854 -0.03499126 -0.014411871
000270 bd 2e 87 bd 24 90 84 bd 75 64 7c 3d 52 b5 95 3d
       -0.066007115 -0.06472805 0.06161924 0.07309975
000280 40 8b a7 bb 24 5b 4c bd 53 b1 0b bd f7 df ed bc
       -0.0051130354 -0.049891606 -0.034104656 -0.029037459
000290 95 8b f3 3c 0b f3 ed b9 17 1b 84 3b 67 77 95 3d
       0.029729644 -0.00045385244 0.0040315497 0.07298165
0002a0 bd be a3 3d 0e f5 90 3c 9a 2a 84 3d ab c0 82 bd
       0.07995365 0.017694976 0.06453438 -0.06384405
0002b0 7d 44 bb ba 46 11 29 3d 8b 69 9b bc 1b a4 98 3d
       -0.0014287379 0.04127624 -0.018971225 0.07453176
0002c0 39 6e 80 3d 98 cf 07 bd 3b 97 ab bc b3 3c 81 bd
       0.06271023 -0.03315696 -0.020946136 -0.063104056
0002d0 cf f4 7b bd 40 b9 70 bb 64 36 88 3d 72 ee 56 bd
       -0.061512765 -0.0036731511 0.06650999 -0.052473493
0002e0 98 cc 13 bd 32 d9 c5 bc 37 c2 8e bd d3 4c 53 bd
       -0.036083788 -0.024151418 -0.06970637 -0.051586937
0002f0 c2 e9 21 bd 47 e9 85 3d 67 e4 99 bd f3 eb 0b bd
       -0.03952957 0.06538635 -0.075142674 -0.034160566
000300 9f 02 ac bc 7b 86 4d 3d 2a 97 37 bd 19 38 86 3d
       -0.020997344 0.05017708 -0.044821896 0.065536685
000310 e7 0a fe bb 20 71 18 3d 72 bc f3 bc db 54 10 3d
       -0.0077527645 0.03721726 -0.029752944 0.035237174
000320 97 01 8a 3d 47 f4 43 3d 4b e5 74 3d f7 a4 0a bd
       0.067385845 0.047840383 0.059788983 -0.03384873
000330 f2 53 4c bd db 9d c3 bc 5f 95 7d bd ab 57 57 bc
       -0.049884744 -0.023878982 -0.06191003 -0.01314346
000340 5f 3a 86 bd ea a8 88 bd db 5e 4a bd 7b 15 19 bc
       -0.06554102 -0.06672843 -0.049406867 -0.0093435
000350 3d 3f 6a bc 63 ec 59 3c 38 a2 36 bd 97 ff 8d 3d
       -0.014297304 0.013300988 -0.044588298 0.069335155
000360 1d 1b d3 3c f2 90 90 3d 8d 45 56 bd 20 93 89 bc
       0.025769765 0.07058896 -0.052312423 -0.016793787
000370 cf 2c f6 bc 4f a2 ec 3c 76 e5 39 3d 00 4b 47 3c
       -0.030050663 0.028885989 0.045384847 0.0121638775
000380 12 2d 63 3c 98 10 20 3d 3f 7c 26 bd 83 3c 2b bd
       0.013865726 0.039078325 -0.040645834 -0.041805755
000390 03 fd e3 bc 47 00 5f 3c 32 ca 4b 3c 37 ad 4b 3d
       -0.027830606 0.013610906 0.012438344 0.049725737
0003a0 53 7f 30 bd bb 3c 14 3c 96 28 8b bc df 6b 2a bd
       -0.043090176 0.009047682 -0.016987126 -0.04160678
0003b0 ca 24 5f 3d 19 99 af bd cd d3 10 bd af c4 82 bd
       0.054478444 -0.08574123 -0.03535824 -0.06385171
0003c0 27 f9 9a bd 1b 99 20 bc 57 fd 69 bc f3 f1 ca 3c
       -0.07567053 -0.009802128 -0.014281592 0.024773574
0003d0 63 47 7c bd e8 8e 99 bc 5a 23 7e 3d 7a 83 da bc
       -0.061591517 -0.0187449 0.062045433 -0.026674021
0003e0 4e bd 0a 3c be b9 c0 3d 6f e1 18 3c 38 da b9 3b
       0.008467985 0.094104275 0.009331091 0.0056717657
0003f0 7d 2b 3f bd 3b f3 1f bb 7a ca e4 bb 87 5d 67 3c
       -0.046672333 -0.0024406451 -0.006982145 0.01412142

fc3.bias f4 [10]
000000 9b 15 89 bd 92 d9 86 3d 67 61 7e bd 9b 24 0c bd
       -0.06693574 0.06584467 -0.06210461 -0.034214597
000010 08 a6 58 bc 5f 4d 3b bd 20 49 de 3c ab 24 0f bd
       -0.013223179 -0.045728084 0.027134478 -0.03494708
000020 8f e9 63 bd 33 ce 5c bd
       -0.05564266 -0.053907584
